results/ppo/My Behavior/checkpoint.pt (torch, 429666 bytes, 33 tensors)

network_body._body_endoder.seq_layers.0.weight f4 [128, 1]
00000000: 8f6a fc3d 9445 a33f 4e8b 263f 4031 bdbe
00000010: 813a 6e3f bafc 0bc0 c021 df3e a401 08bf
00000020: fba9 7c3e 8d1f 463f 02a8 aabf d40b 46bf
00000030: 0622 f03f ea48 9d3f c6a7 0e3f 9ce8 05bf
00000040: 1b58 913f 3f39 afbf 168e 53bf 1d93 bc3f
00000050: 9b86 a73e 3f7c 1d3f 6cbc 943e 8931 e5be
00000060: 4f84 12be 828f 4d3f 310a 173f cfb2 0a3d
00000070: ccec d43e c49a d8bf dad3 233e 9f96 b93f
00000080: 20bb 773f dbb4 d33f 6062 5dbe 31c1 0e40
00000090: 1876 12be a794 7bbf 5026 14be 75b7 42bf
000000a0: e044 87bf eb9c 31bd 0037 3040 2ad1 a53f
000000b0: d9f9 9dbe 1de2 c6be ebf7 3b3f 14a4 d1bf
000000c0: 7928 eabe 6d1f bbbe 1a88 76bf bc27 f73e
000000d0: b430 493f f712 44bf c7a6 cabf 5541 dcbd
000000e0: ec0a d33f 0b2f 513e 8d73 8f3f 1f48 8c3f
000000f0: 6912 913f c259 a5bf 6502 7c3e 96c7 b23f
00000100: c8db 733e f231 20c0 12d3 16be 84bb 2e3f
00000110: 1a96 d63e 557b c8bf cf56 7e3f 682c 703f
00000120: 4058 c23f d61b 953e 036c 3b3f dd9a 723f
00000130: d4e3 cd3d f276 60be 3ab5 5a3e 46d4 eebf
00000140: 2e54 8cbf 5d46 84bf bf56 5b3e 0428 0fbe
00000150: 11d8 0640 b190 c53f 5be8 c53d 7d71 edbf
00000160: 2722 11be 26f0 d4bf 7404 adbf 9c15 8c3e
00000170: 8147 2c3f bd2f 373e 2a12 aabf db6e 153e
00000180: 37df 5c3e 4925 9f3f 2b46 b6bf ca17 2140
00000190: 7acd c53e 6efc b4be f039 e6be ec9d c5bf
000001a0: a72f cbbe 783e 3dbd ae99 da3f 0da4 3d3f
000001b0: 7ade 013f ac6c b5bf 5919 823f 49d2 62bf
000001c0: 4e5c 8e3f 3a74 81bf e17b 0740 6adf a13f
000001d0: 1ea9 0bc0 6fcc 24bf 3f78 b8bf f130 49bf
000001e0: bb2d f6bf 365a 843f 9d9c 05bf 99b6 d53f
000001f0: 49f9 8cbf f97b 533e 2060 953f d681 58bf
0.12325012 1.2755609 0.6505631 -0.36951637 0.9305802 -2.1873002 0.43580437 -0.53127503
0.24674217 0.7739189 -1.3332522 -0.773618 1.8760383 1.2287877 0.5572475 -0.5230806
1.1355013 -1.3689345 -0.8263868 1.4732395 0.32719883 0.6151771 0.29050004 -0.44764355
-0.14308284 0.802971 0.58999926 0.03386193 0.41586912 -1.6922231 0.15998784 1.4499091
0.96769905 1.6539568 -0.21619558 2.2305415 -0.14302862 -0.982737 -0.1446774 -0.76061183
-1.0567894 -0.04336254 2.753357 1.2954457 -0.3085468 -0.38844386 0.7342517 -1.6378198
-0.45734003 -0.36547413 -0.96301425 0.48272502 0.7858994 -0.7659144 -1.5832146 -0.107546486
1.6487708 0.20428102 1.1207138 1.095951 1.1333743 -1.2918017 0.24610288 1.3967159
0.23814309 -2.5030484 -0.14728954 0.68254876 0.41911393 -1.5662638 0.9935121 0.9381776
1.5183182 0.291228 0.7321169 0.9476755 0.100532204 -0.21920374 0.21358195 -1.8658531
-1.096319 -1.0333973 0.2141981 -0.13980108 2.1069376 1.5434781 0.09663459 -1.8550259
-0.14173184 -1.6635787 -1.3516984 0.27360237 0.67296606 0.17889304 -1.3286793 0.1459307
0.21569525 1.2433254 -1.4240164 2.517077 0.3863333 -0.3534884 -0.44966078 -1.5438819
-0.39684793 -0.046202153 1.7078149 0.74078447 0.507301 -1.4173789 1.0163985 -0.8860212
1.1121919 -1.0113595 2.116936 1.2646306 -2.182197 -0.6437444 -1.4411696 -0.78590304
-1.9232706 1.034003 -0.521921 1.6696349 -1.1013576 0.2065276 1.166996 -0.84573114

network_body._body_endoder.seq_layers.0.bias f4 [128]
00000000: a4aa f03a 9741 39bb 759b 8fbb 4d48 99b8
00000010: b993 73ba f35e 26bb 6720 87bb d231 583b
00000020: 1284 d0b9 b48b cebb bbfb 05bb 340b 033a
00000030: 38dd afba 88b2 99bb b94b 07bb dfbb 5cbb
00000040: 4b3d 643b 3f5b a4ba b6da 153b 4f5e 6bbb
00000050: 0156 34bb 4dca faba c747 62ba feb6 1a3b
00000060: bc7f 723b 6846 893a b7c1 6c3b cc01 8dbb
00000070: 60df 50bb f71a 643b 02eb 22bb d9ac f4b9
00000080: cd62 1d3b 9906 9dbb 7df2 24bb 5a71 a1bb
00000090: 3024 9739 6c1f a13b 94c6 e6ba 099b b53a
000000a0: 779f ca39 68d3 cd3a dbc9 38ba e5d8 163b
000000b0: ef77 2c3a 59e0 d7b8 d1a4 8ebb 8b0b 91ba
000000c0: a37f 313b e72e 7bbb 9522 d439 1061 b1ba
000000d0: ca81 bb3a 9ded 6c3b 22c3 49bb f22e 463b
000000e0: c888 d3bb 6e78 78bb 2f9f 463b 22a3 92bb
000000f0: 27f2 c3ba 9e3e 053a 5b5b 163b 86bc 94bb
00000100: 7ce5 f3ba 4bb6 8ebb f6a0 29ba 9512 b4bb
00000110: 51b6 d03a b788 663b 039d 81bb c790 cbbb
00000120: 6c91 6ebb 0ceb 523a 24b2 88bb a227 063a
00000130: ac0c e9b8 7901 57ba 0850 d1ba 1660 84bb
00000140: eec4 863a eccc 423b ba80 8ebb b912 77ba
00000150: df50 cdba 24c2 a1ba 4d6d 243a 80ed 18bb
00000160: 22b8 ddb9 b1d2 3b3b e51d 273b 4301 473b
00000170: 667f 073b 810b 0cbb 50b4 98ba 19e3 27bb
00000180: ac9b 313b cadf c1bb 3549 ccba d8e4 ce39
00000190: 64a3 06bb df0d 3a3b 1ff2 0b39 6c88 303b
000001a0: 0b37 19bb d06b 183b bc62 fb3a f867 8b39
000001b0: 2837 53bb 6695 033b b841 8d38 8dc6 1f3b
000001c0: 14f8 3bbb 3508 edba c963 eaba 33b8 73bb
000001d0: 9c30 403b cb0f a33a 6285 d73a 5b68 3b3b
000001e0: 55dc d83a 222c 6cb9 6bc4 903a cbf3 61ba
000001f0: a776 74b9 cee3 bcbb 6423 363a 76d0 523b
0.0018361402 -0.0028267854 -0.0043825456 -7.3090756e-05 -0.0009291727 -0.0025386184 -0.0041237357 0.003298868
-0.00039771252 -0.006303275 -0.0020444233 0.0004998923 -0.0013417369 -0.004690472 -0.00206445 -0.0033681316
0.0034826573 -0.00125394 0.0022865958 -0.0035914367 -0.0027517083 -0.0019133777 -0.00086319115 0.0023607607
0.0037002405 0.0010473253 0.0036126205 -0.0043031927 -0.0031871423 0.0034806111 -0.0024859314 -0.00046668088
0.0024015189 -0.0047920463 -0.0025168948 -0.0049268426 0.00028827926 0.004917076 -0.0017606788 0.0013855408
0.00038647253 0.0015703263 -0.0007049122 0.0023017463 0.0006579151 -0.00010293787 -0.0043531437 -0.0011066062
0.0027084134 -0.0038327517 0.00040461557 -0.0013532955 0.0014305648 0.003615237 -0.0030786474 0.0030240384
-0.0064555146 -0.0037913579 0.0030307283 -0.0044750134 -0.0014949486 0.0005082878 0.0022942636 -0.0045390753
-0.001860782 -0.004355227 -0.00064708234 -0.005495379 0.0015923475 0.0035176703 -0.003955485 -0.006212327
-0.0036402596 0.0008045889 -0.0041716266 0.00051176 -0.00011112666 -0.00082018186 -0.0015969286 -0.0040397746
0.0010282078 0.0029724194 -0.0043488415 -0.0009425092 -0.001566436 -0.0012341184 0.00062723906 -0.002333492
-0.00042289594 0.0028659517 0.0025499996 0.0030365742 0.00206753 -0.0021369162 -0.0011650417 -0.0025617538
0.0027100844 -0.0059165703 -0.0015585782 0.00039461884 -0.0020544166 0.0028389615 0.0001334627 0.0026936783
-0.0023378755 0.002325762 0.0019179205 0.0002658961 -0.003222892 0.0020078062 6.735645e-05 0.002437982
-0.0028681802 -0.0018084111 -0.0017882521 -0.0037188649 0.0029325848 0.001244062 0.001644295 0.0028596136
0.0016545156 -0.00022523155 0.0011044865 -0.0008619397 -0.00023313855 -0.005764461 0.00069480226 0.003216771

network_body._body_endoder.seq_layers.2.weight f4 [128, 128]
00000000: a676 f1bd 76e6 b2bc 2f9d 29bc fa16 d0bc
00000010: 5574 17bd 90ef 8fbd b63e 323e 2870 3e3d
00000020: 9e81 93bd 5827 3d3d 5ab6 10bd 4f75 ea3c
00000030: d4c9 83bd 9e12 2fbd 28b4 fc3c 62b5 9fbd
00000040: 8fc4 273c c7dd d8bc cdd6 51be dd39 9cbd
00000050: bd9e 41be 3f41 85bc 828a 4cbd e60c 153d
00000060: 9402 96bd dea7 eb3a 2827 f03d 305b 333c
00000070: 424b 2e3d eebb fbbd 834b cbba 051e c3bd
00000080: dd1c 0f3e 4213 4a3e a1df b43d 7294 9d3b
00000090: beec 4abc 752b bc3a 2512 edbd 7950 203d
000000a0: 91dd 93bd bf84 1bbd 65fb b63d 2246 b83d
000000b0: 8e5c 0fbd bf81 15bd 8136 48bd d958 383e
000000c0: 2f80 8f3d 5c71 3a3d f96b fc3a a41c b6bd
000000d0: c2c6 cebd 5f14 483d 71a9 b23c c6b4 143d
000000e0: fdd4 313b 3605 ec3d 0fb9 51bd 2cae ebbd
000000f0: 508a efbd 42c4 0e3e 95fc 95bd 1db7 cb3d
00000100: 8824 1ebe c87d 983d 147d 7d3d f6b6 6d3c
00000110: 050f 8abc 6ecd 9d3d 3077 d73b 2f31 19be
00000120: e9a3 0c3d f773 213d bd44 4c3e 3944 b4bc
00000130: f42c 293e 18a6 573e b338 db3b 4636 d53c
00000140: d20c 57bd ab33 4bbe 3259 ccbd 1062 8bbd
00000150: 9184 c6bd 1a2d c7bd c28f 13bd 8b09 9fbd
00000160: bae6 1fbd bbe2 0ebc cef1 fe3c 71f4 d43d
00000170: b8d3 223b c72c 99bc 07e1 9d3d 68b7 e1bc
00000180: 6ce8 183c 3e63 453d 3aa7 1a3e 6962 6f3d
00000190: 0b88 efbd 2e9a a03d 7f7a 1c3e 679b 9f3d
000001a0: c460 193e 3a8a b73c 854d 003d ad31 503d
000001b0: 6d8b ccbd 304d a73d 0de4 1fbd b45c a33d
000001c0: 0969 74bd f7b2 093d d519 44bd 6f72 5abd
000001d0: d5cb 80bd 16ce 28bd ad09 85bc 1551 46bd
000001e0: c0ed 1e3e 63e8 043e 63d4 afbc 5b70 2cbe
000001f0: 7f54 babd 5e6f de3d 7eb2 f2bd 943d ef3d
00000200: 8a66 f73d 173d d2bc 2660 903d 0003 c43d
00000210: 1575 cabd f8a9 e5bd 0663 123d 314a fd3d
00000220: 0955 ebbb d96c 8d3d 5a11 babc 1478 8bbb
00000230: e261 f4bb c4f9 a2bd a74f 9e3d 867c e1bc
00000240: 86cf 1a3c 5fec f2bd 77c6 203d c34e 913d
00000250: d25c 363e 60a3 76bb 2425 203c 4118 8abd
00000260: 58c8 0cbd 044b 6c3d 2f82 55bb 731e cd3d
00000270: 48c3 ecbc 939f 2c3e 5821 37be a831 ac3d
00000280: 0324 4b3d bf45 37bd 84be 3e3e 1eb0 bebc
00000290: 4ce0 76bd 4c3d 09bd 544e 2f3e cbf8 2e3d
000002a0: a568 773d e44f 373d 32c2 41bd 6091 45bd
000002b0: b10a a9bc bb26 d63d 222e 3d3d 25fe 8fbd
000002c0: 4e4c afbc f98e cb3c 7897 363e 0ee9 cbbd
000002d0: 9659 5fbd c34d e8bd 5955 133d 621c d33c
000002e0: 50e8 fa3c 2659 68bc c592 c4bc 8c6a a53d
000002f0: 9324 ae3d a6a2 713d 8167 09bd d019 34bd
00000300: f48c d13d d01a 87bc 8bc2 853d b7d9 ea3d
00000310: a3a4 08bc 8841 863c 27fb ffbd 2fb0 8d3d
00000320: 6375 793d 0cd1 7d3d 3fc2 cc3c 7e21 a23d
00000330: 9ff0 103e 212e 2b3d 0907 193e 2ec0 273d
00000340: 3af1 62be d43d 5cbd 19e5 573e c229 a43d
00000350: a274 9fbd 09a5 5cbc f702 9a3d 3dda 97bd
00000360: d6cc 4bbe d523 313e 4371 80bd e382 8abc
00000370: 7fbd ce3b 9907 b33c 0c20 20bc 883a 123d
00000380: a498 733d 2d65 743e 4046 8dbc 632c 0b3e
00000390: fa3a 09be 0e5c 35bd 8a0f a43d 0ec3 633a
000003a0: 9603 c43d 92c7 14bd c05b 50bd b28d 74bd
000003b0: 1c43 4bbd d7cf 39bc 6c90 94bc b529 5fbc
000003c0: 8984 063e 522a e73d 3ab8 c53c 8146 ab3d
000003d0: b43a da3b ed46 0cbe e27c a13d ac12 b1bd
000003e0: cd0f d8bc 0f8f dd3c c788 92bd cba3 953d
000003f0: ef31 173e 02a5 c33d 758d 023c 7218 473c
-0.117902085 -0.021838408 -0.010352417 -0.025401581 -0.036976177 -0.07028115 0.17406735 0.04649368
-0.07202457 0.0461801 -0.035330154 0.02862039 -0.0643498 -0.042742364 0.030847624 -0.07798268
0.010239734 -0.02647294 -0.20492096 -0.07628224 -0.1890821 -0.016266463 -0.04993678 0.036389254
-0.073247105 0.0017979105 0.117262185 0.010947034 0.04255224 -0.12291704 -0.0015510175 -0.0952721
0.13975854 0.19733909 0.08831716 0.004808956 -0.012385545 0.0014356213 -0.115757264 0.039139245
-0.07219995 -0.037968393 0.089346685 0.08997752 -0.035000376 -0.03650069 -0.048880104 0.18002643
0.07006871 0.045518264 0.0019258253 -0.088921815 -0.10096504 0.048847552 0.021809312 0.03630521
0.0027135008 0.115244314 -0.051201876 -0.1150783 -0.11696303 0.13942054 -0.07323567 0.099470355
-0.15443623 0.07445866 0.061886862 0.014508953 -0.016852865 0.07705198 0.0065754876 -0.14960168
0.034336004 0.039417233 0.19948097 -0.022005187 0.16521055 0.21059453 0.0066901087 0.026026856
-0.05250246 -0.19843929 -0.0997795 -0.06805813 -0.09693254 -0.09725399 -0.03602577 -0.07765492
-0.039038397 -0.008721049 0.03112116 0.10398186 0.0024845432 -0.01869811 0.07708936 -0.027553275
0.009332757 0.048190348 0.15102854 0.05844346 -0.1169587 0.078419074 0.15281104 0.077933125
0.1497832 0.022404779 0.03132393 0.050828625 -0.09987531 0.08169019 -0.039035846 0.07976666
-0.05967048 0.03361794 -0.047876198 -0.05333179 -0.06288878 -0.041212164 -0.016239965 -0.04841717
0.15520382 0.12979273 -0.021463579 -0.16839735 -0.090981476 0.10861085 -0.11850451 0.11681667
0.12080105 -0.025663896 0.07049589 0.09570885 -0.09885613 -0.112140596 0.035738967 0.123676665
-0.007181768 0.06905527 -0.022713352 -0.004256258 -0.0074579576 -0.07957795 0.07730036 -0.027525198
0.0094488915 -0.118614905 0.03925177 0.07095101 0.17808846 -0.0037634 0.00977448 -0.06742907
-0.03437075 0.057688728 -0.0032578816 0.10015573 -0.028901711 0.16857748 -0.17883813 0.08407909
0.04959489 -0.04474425 0.18627363 -0.023277339 -0.0602725 -0.033505723 0.17119724 0.042717736
0.06040253 0.044753924 -0.04730434 -0.048234344 -0.02063498 0.10456606 0.046186574 -0.07030896
-0.02139869 0.024848448 0.17831218 -0.09956561 -0.054528795 -0.11342957 0.035970066 0.02577037
0.030628353 -0.014181411 -0.023995766 0.08076963 0.0850307 0.058993004 -0.033545975 -0.04396993
0.10231963 -0.016492277 0.06531247 0.11467307 -0.008340034 0.01638867 -0.124990754 0.0691837
0.060902964 0.06196694 0.024994968 0.079165444 0.1415429 0.04179204 0.1494409 0.04095476
-0.22162333 -0.0537699 0.21083488 0.08015777 -0.07785918 -0.013467082 0.07520097 -0.074146725
-0.19902357 0.17298825 -0.06271603 -0.016908115 0.006309211 0.021854209 -0.009773266 0.03570035
0.05947174 0.2386672 -0.017245412 0.13591151 -0.13401404 -0.044277243 0.08010776 0.0008688428
0.095709965 -0.036323138 -0.05086875 -0.059705444 -0.049624547 -0.011341057 -0.018135272 -0.013620784
0.13136496 0.11287369 0.024135698 0.08363057 0.00665983 -0.13698931 0.07885148 -0.086461395
-0.026374722 0.027045755 -0.071549945 0.07306632 0.14765142 0.09552957 0.007968296 0.012151824

network_body._body_endoder.seq_layers.2.bias f4 [128]
00000000: c693 f5ba 4b34 9cbb 4e4c 01bb 3702 5bbb
00000010: 8351 0eba 71df 73bb 7ae3 82bb 1fd6 a0bb
00000020: 0fe2 64bb f2be 6e3b fa66 153b e76c 8cbb
00000030: 9237 ed3a eb71 a9bb be24 60bb b3ee 233b
00000040: 5a16 58bb eba6 2a3a 94e0 40b9 acb4 633b
00000050: 50c0 413b 679d 633a 1df2 c33a 12ec 563a
00000060: 369a 1aba 3466 a3ba 4258 a7ba 288c 27bb
00000070: ca64 5439 3c70 77b9 6f5d 523b cf57 64bb
00000080: 2583 1bbb 3013 bf3b ce41 6e3b 3822 313b
00000090: c146 b4ba ef78 30bb 7553 12bb 7f49 d43a
000000a0: 1c05 c8bb 66c4 3e3a 8a72 1ebb 22aa 853b
000000b0: 862a 1f3b fc17 ff39 b3a4 80ba e42d 933a
000000c0: 90c8 733b 4efc 043a f599 3bbb a5f2 42bb
000000d0: 95ce 10ba f153 903a 4964 f63a b7e4 053b
000000e0: 34ee 42ba c0e5 8f3a 32d4 2d3b f367 82bb
000000f0: 514a efba 1b89 5eba daa1 f6ba b14a cfba
00000100: 9a85 913b ca53 0b3c ddfd efba ecc1 8339
00000110: 0c95 24bb 5b63 013b 0297 1e3b 8a84 e9ba
00000120: 57ee fb3a 1fcf 85bb faac 4d37 c879 a9ba
00000130: fe67 0aba a899 4f3b fc40 183a 98a0 98bb
00000140: cc10 a6bb 0bc8 e03a 36cc b3ba 842e 103b
00000150: d05a 97b9 fc96 d43a b9ac 1bbb 17e3 193b
00000160: 48dd acba 69bc 14bb 0713 283b e804 153b
00000170: 56fe 87b9 6e00 993b a560 7cbb 3c35 2439
00000180: fa34 58ba 3aff 343b b239 893b 851b b639
00000190: 8c94 15ba e69c 023b 16e8 8bbb 2088 9fba
000001a0: 393b b3b9 2d9d b13a 71ae 7fbb 38db 3fbb
000001b0: 3104 0dbb 75eb be3a 1462 9c3b f027 bfbb
000001c0: f981 553a 69ca eab9 0736 69bb 04be 29ba
000001d0: 528e b9ba 4a59 15bb 709e bcba 9e1f eb3a
000001e0: ef49 243b 4b41 153b b745 07bc ccaa 8e3a
000001f0: 7982 9639 5148 3d3b 633b dfba c6e7 713b
-0.0018736057 -0.004766976 -0.001972932 -0.0033418068 -0.00054290163 -0.003721204 -0.0039944025 -0.0049083377
-0.003492478 0.003642973 0.0022796975 -0.004285443 0.0018098226 -0.005171051 -0.0034201588 0.0025014102
-0.0032972307 0.0006509858 -0.00018394209 0.003474514 0.002956409 0.00086828176 0.0014949475 0.00081986294
-0.0005897613 -0.0012466372 -0.0012767392 -0.0025565717 0.00020255442 -0.00023597566 0.0032099148 -0.0034842377
-0.0023729291 0.0058311448 0.003635514 0.0027028453 -0.0013753996 -0.002692755 -0.0022327576 0.001619622
-0.0061041247 0.00072771905 -0.0024177157 0.0040791193 0.002428682 0.0004865526 -0.0009814709 0.0011228886
0.0037198402 0.0005072997 -0.00286257 -0.0029746678 -0.0005523947 0.0011011345 0.0018798198 0.0020430514
-0.0007436008 0.0010978505 0.0026524183 -0.003979677 -0.0018256401 -0.0008489058 -0.0018816546 -0.0015815106
0.0044409754 0.008503864 -0.001830991 0.0002513075 -0.0025113253 0.0019743058 0.0024198894 -0.0017815989
0.0019220811 -0.0040835286 1.2259226e-05 -0.001292997 -0.0005279778 0.003167728 0.0005808023 -0.004657816
-0.0050679203 0.0017149461 -0.0013717476 0.0022000382 -0.00028868625 0.0016219313 -0.0023754074 0.0023481303
-0.0013188506 -0.002269531 0.0025646107 0.002273852 -0.00025938702 0.0046692407 -0.0038509753 0.0001566009
-0.000824764 0.0027617947 0.004187786 0.0003473425 -0.0005706034 0.0019929945 -0.00426961 -0.0012171306
-0.00034185665 0.001355087 -0.0039013887 -0.0029274952 -0.002151739 0.0014566021 0.004772434 -0.0058336183
0.00081446726 -0.00044782765 -0.0035585181 -0.0006475153 -0.0014156795 -0.0022788816 -0.001439048 0.00179385
0.0025068482 0.0022774513 -0.008256367 0.0010884642 0.0002870744 0.0028882215 -0.0017031248 0.003691183

action_model._discrete_distribution.branches.0.weight f4 [5, 128]
00000000: cba2 733b 3d93 053b 9903 fd39 5adc 85bb
00000010: 8304 30bc 92eb 2f3c 3430 7d3c 04e5 553c
00000020: 7a2c 5f3c f834 993b 6ea4 933b cfd5 09bb
00000030: 4bcf 3ebb 2792 493c 822c a6bb 63a1 d6bb
00000040: a902 093c b279 cebb d681 45bc e86f 0bbc
00000050: 88fa 89bb c3a4 cb3a e1ad 963a a7ee 8e3b
00000060: 3b24 713c ffaa a5bb 9f9f 69bc 03a8 c439
00000070: 40f1 9bbb 28a0 17bb 0b04 c2bc 7203 2a3c
00000080: 053d 6c3c 74da c4bb 887c 36bb e8de 483c
00000090: 65c1 62bb f7a2 243c 4c7b 003c 3a09 173b
000000a0: 106e 193b e91e c1ba d0a2 193c 16ca 24bc
000000b0: 6f30 e9bb d91c adbc 0014 4cb6 79cb c3bb
000000c0: ba85 3cbb 2660 42bc 8661 1c3b 7c8b 213c
000000d0: 375c 783c 51e1 9fbc ca0d 27bc 4710 1c3b
000000e0: 7db8 363b ebda 87bc 78cf 3a3c 161d 1aba
000000f0: ec8f 9d3a bfc1 533c 3894 183b 05ca 28bb
00000100: f903 69bc 9a2e d1bb 7dae b33a 9a19 debb
00000110: 6fa0 06bb 505c 52bc 9118 ebbc 2b2b a73b
00000120: 55cd 86bc 039e fc3b 1deb a3bb 778f 63bc
00000130: f7ad 623c 621d 7abc bdc3 d93b 8e95 823b
00000140: bf3f 9fbb 377f 193b 065e 8d3a 5967 95bc
00000150: 2741 6dbb e990 43bc 3ed1 683c 5683 1a3c
00000160: 41ef abbc 8519 ed3b 5a44 adbc 0fc9 df3b
00000170: f254 483c a86e 0abc da55 913b bf59 4f3b
00000180: 0e74 2fbc 38ff a53b 84fd 2abb 7b90 a3bc
00000190: fa63 0dbb 78a0 81bc 9959 c5ba ba18 4cbb
000001a0: 542a 9a3b 619a 83bc e1a5 ab3b dc2d 62bb
000001b0: 43ac 513c 739a 10b9 3d92 173c 7d90 b8ba
000001c0: 410b 933b 6ea0 7b3c 1988 743c 15f3 843b
000001d0: c294 cdbb b62d 6a3a 2cc7 453c 19ba 94bc
000001e0: f62a 2a3a 595a 70bc 9391 383c c26f 503b
000001f0: 8d0b 803b 00b5 05bc 4c24 b5bb 1ced 07bc
00000200: 5a6d d3bc dd7a e2bb 608c cfbb dbfe 24bb
00000210: 7840 41b5 c794 093b e602 90bb 8baf adbb
00000220: 8649 cdbc d816 573c 268e ec3c 85c7 1fbb
00000230: 9d6c 613c b450 73bb 6f4a 07bc a2e9 16b9
00000240: da72 bebb d1e7 babb 81bb a0bb c47a b4bb
00000250: defe 1c3b e833 9a3b 0481 3c3c 3370 983b
00000260: a526 b83a d376 8dbc b22a 48b9 5e4e 3b3b
00000270: 8390 313c f5fb 0fbc e1ac 673c 7d4a 3e3b
00000280: 7ab5 4abc 99b6 a33b 13e1 443b 9adb 483c
00000290: 1690 24ba a7e3 20bc afa6 53bc 6d64 f9bb
000002a0: 80bc 8e3b 6683 8d3b 9af1 f63b 081a f23b
000002b0: 8960 4a3c 9a96 023b 2b12 e83b c129 1bbc
000002c0: 5721 723b 8fc2 8fba 3d8b 91bc 904c 5cbc
000002d0: b1f7 463b c678 653b 9900 c63b d7fc 0b3b
000002e0: 71b0 ccbb 320a 1d3c 4e95 2d3c 9726 003b
000002f0: 278d 04bc 36dc 0bbc c976 01bc aaf2 fb3a
00000300: 8870 563a 0e67 9ebb c972 c43b a26f 653c
00000310: 1eb4 1ebc 3c8b be3b 935f 083c 5413 95bb
00000320: abaf dd3b cc4e be3b 3b21 a83b 94ab 93bb
00000330: 26f2 2dbb 6438 1d3c 9e18 59bb 7538 3db9
00000340: e39a 33bc e620 2abc 5c9e 3d3b 2f7e cd3a
00000350: e51b af3b e25d 9e3b 1542 d13b c080 ac3b
00000360: 768d 15bc f230 49bc 8c36 ce3a fb24 483b
00000370: 6d6f 77bb f3c0 203c 427d 1cb8 dad3 813c
00000380: fd56 133b 8db7 89bc 6b84 553b 9adb c1ba
00000390: f133 eebb acbb 0b3c 91cd e5bb 6d01 a5bc
000003a0: c359 2fbc 8cc8 0d3b 5002 49bb 4e3e aebb
000003b0: 2292 f8bb 3492 be3c ee86 4cbb 6b40 07bb
000003c0: f47a bbbb c7e2 993b f5b8 99bc 2946 c4bb
000003d0: 2824 54bb 33b0 bfbb 47b8 d1bb 0838 863b
000003e0: bb08 bb3c 8774 963b 0776 053c 4641 a3bb
000003f0: d604 c53a 7ada b63c fe3c 1e3b 84bd 38bb
0.003717589 0.002038195 0.000482586 -0.004085106 -0.010743263 0.010737317 0.015453387 0.01305509
0.013621444 0.004675504 0.0045056855 -0.002103198 -0.0029115255 0.012302912 -0.0050712237 -0.0065500005
0.008362451 -0.0063011283 -0.012054881 -0.008510567 -0.004210774 0.0015536774 0.0011495912 0.0043619457
0.014718111 -0.0050557847 -0.014259248 0.00037509212 -0.004758984 -0.0023136232 -0.023683568 0.010376798
0.014418845 -0.006007487 -0.0027845223 0.012260176 -0.0034600135 0.0100486195 0.007841896 0.002304627
0.002341155 -0.0014733943 0.009377196 -0.010057947 -0.0071163694 -0.02113192 -3.041001e-06 -0.0059751836
-0.002876623 -0.011863744 0.002386184 0.009859916 0.0151587045 -0.019516619 -0.010196159 0.0023813413
0.002788096 -0.01658388 0.0114020035 -0.0005878968 0.0012021041 0.012924611 0.0023281705 -0.0025755179
-0.014222139 -0.006383729 0.0013708618 -0.0067779543 -0.0020542403 -0.012839392 -0.028698238 0.0051015816
-0.016455332 0.007709266 -0.005002393 -0.013889185 0.013835422 -0.0152657945 0.0066456483 0.0039851135
-0.004859894 0.0023421773 0.0010785467 -0.018237757 -0.0036202164 -0.011936405 0.0142100435 0.009430727
-0.020988109 0.007235708 -0.021150757 0.006829388 0.012227284 -0.008449234 0.004435283 0.0031639186
-0.010708822 0.005065825 -0.0026091048 -0.019966355 -0.0021574483 -0.015823588 -0.0015056609 -0.0031142668
0.004704753 -0.016064825 0.00523828 -0.0034512198 0.012797418 -0.00013790447 0.0092511745 -0.0014081147
0.0044874256 0.015358074 0.014925026 0.004057298 -0.006273837 0.0008933203 0.012071412 -0.018155145
0.0006491387 -0.014669978 0.011265176 0.0031804894 0.003907627 -0.00816083 -0.0055280086 -0.008296277
-0.025808979 -0.006911619 -0.0063338727 -0.002517632 -7.1991917e-07 0.002099322 -0.004394877 -0.0053004674
-0.025059473 0.013128005 0.028876375 -0.0024380398 0.013758806 -0.003712696 -0.008257492 -0.0001439215
-0.005812031 -0.005703904 -0.0049051647 -0.005507799 0.0023955624 0.0047058947 0.011505369 0.004652047
0.0014049603 -0.017268574 -0.00019089392 0.0028580646 0.010837677 -0.008788099 0.014140339 0.0029036098
-0.012372369 0.0049961326 0.0030041381 0.012259388 -0.0006277574 -0.009819902 -0.012918158 -0.0076108486
0.004355967 0.0043186424 0.0075361254 0.007388357 0.012352117 0.0019926191 0.007082244 -0.009470404
0.0036946142 -0.0010968017 -0.01776659 -0.013445988 0.0030360038 0.0035014614 0.0060425517 0.002136042
-0.0062466194 0.00958495 0.010594679 0.0019554251 -0.008090294 -0.008536389 -0.007901856 0.00192221
0.00081802206 -0.0048340624 0.005995129 0.014003666 -0.009686498 0.005814938 0.008323568 -0.004549423
0.006765326 0.005807733 0.0051309145 -0.0045065377 -0.0026542037 0.009595964 -0.0033126245 -0.00018045476
-0.010962221 -0.01038382 0.00289335 0.0015677864 0.0053439015 0.004832969 0.0063860514 0.0052643716
-0.009127965 -0.012279736 0.0015732809 0.003053962 -0.0037755624 0.009811628 -3.7309954e-05 0.015848089
0.002248227 -0.016811157 0.0032580148 -0.0014790178 -0.0072693755 0.008528631 -0.007013031 -0.020142281
-0.010702553 0.0021634428 -0.0030671544 -0.005317486 -0.0075857798 0.023263074 -0.0031208354 -0.0020637761
-0.0057214443 0.0046962234 -0.018764952 -0.005989809 -0.0032370184 -0.005849862 -0.0064001414 0.004096035
0.022831311 0.004591528 0.008145816 -0.0049821464 0.0015031348 0.022320975 0.002414524 -0.0028189132

action_model._discrete_distribution.branches.0.bias f4 [5]
00000000: 8eb5 94bb d1cb 893b 7363 14bb 0a13 723a
00000010: b3f6 a2ba
-0.0045382446 0.004205205 -0.0022642284 0.00092344044 -0.0012433141

exp_avg f4 [128, 1]
00000000: f566 9cb7 0115 c636 44b4 97b6 2bac e4b6
00000010: 88ab deb7 d610 3436 c815 3ab6 50b7 05b7
00000020: 566d 73b7 4ea4 5fb6 261b a735 dc75 4836
00000030: b505 01b8 8f56 e437 b343 e037 62f0 1bb6
00000040: 1cfc 0bb8 e83a 0cb5 5400 6d35 ea3c b937
00000050: b303 eab7 a873 eab7 aa0c 0238 26ad 8236
00000060: d8fe 30b7 c69d bcb7 4c4b 88b7 f39d 2eb7
00000070: 3d08 c837 26dc bab5 6778 b536 2aeb 7db7
00000080: 6f3f c0b7 e301 2f38 bcb8 a3b4 ba42 5138
00000090: 37a3 b936 1e01 6035 79bf c036 f2ae 3ab6
000000a0: 2ebb d434 0006 90b2 0cc8 af37 30a1 7ab8
000000b0: 4cc8 bab5 1be5 85b7 bbaf 0238 9916 8d36
000000c0: f2e3 17b7 484d f036 5b22 9934 e464 a437
000000d0: 0e93 9937 7294 e2b5 3ebe 1ab6 19db dcb7
000000e0: be11 fbb6 1a7d 80b7 7c1f a9b7 587f e435
000000f0: c6fc c4b6 39b0 bfb4 3c06 cbb6 5d5a 4737
00000100: bc1f 14b7 a205 9636 8402 c535 5b72 27b6
00000110: 6cee f6b6 1f6a 74b6 12ed c337 83a1 3938
00000120: bc4a 12b8 13d1 e0b7 c0cb e536 34d3 d337
00000130: 4ae1 9eb7 a416 edb5 86e0 2636 4fa6 e3b4
00000140: e6c6 d334 6843 3335 ea4d a4b6 788b a7b7
00000150: 1219 3437 e46a cbb7 d0c4 8ab7 7a21 a2b5
00000160: ddc0 83b7 cddb 3534 635c 47b6 6c58 0fb6
00000170: 7843 b1b7 f49d 2d36 ca7d 1235 c02e ca36
00000180: 3c0a f4b7 cfac e437 61c8 8535 3086 3db7
00000190: c2ba 8f37 fb5c 1037 d254 41b7 000e cc33
000001a0: d110 9db5 f17d b6b6 f1b3 00b8 ca30 cd36
000001b0: d32f 92b7 20f6 a633 120f d337 1264 e235
000001c0: 7c89 02b7 8445 98b3 fdb0 ba37 9784 0436
000001d0: d29c 3a35 5a10 1235 3682 90b5 847d 23b5
000001e0: 3b0d 0bb7 401b d635 4a1e 07b6 9da9 33b7
000001f0: 327b 9133 82b4 9336 fcf7 39b8 23ae 17b6
-1.8644592e-05 5.903305e-06 -4.5211364e-06 -6.8149725e-06 -2.6544338e-05 2.683189e-06 -2.7728838e-06 -7.9700985e-06
-1.4509385e-05 -3.3325227e-06 1.2450371e-06 2.9870926e-06 -3.076131e-05 2.7220025e-05 2.6734406e-05 -2.323672e-06
-3.3374978e-05 -5.2239784e-07 8.828986e-07 2.2082084e-05 -2.7896696e-05 -2.794883e-05 3.100621e-05 3.894459e-06
-1.0549753e-05 -2.2484815e-05 -1.6247526e-05 -1.0407984e-05 2.3845694e-05 -1.3922152e-06 5.408237e-06 -1.51347285e-05
-2.2917722e-05 4.172501e-05 -3.0495528e-07 4.9891627e-05 5.5324304e-06 8.344813e-07 5.7443362e-06 -2.7817991e-06
3.9624268e-07 -1.6766535e-08 2.095478e-05 -5.9754762e-05 -1.3916374e-06 -1.5961521e-05 3.1158077e-05 4.204758e-06
-9.053374e-06 7.161554e-06 2.8523468e-07 1.9597304e-05 1.8307499e-05 -1.6881515e-06 -2.3058524e-06 -2.6328069e-05
-7.4824484e-06 -1.5317044e-05 -2.0161031e-05 1.7024386e-06 -5.870682e-06 -3.570474e-07 -6.050597e-06 1.1882364e-05
-8.828876e-06 4.471004e-06 1.4678376e-06 -2.4951503e-06 -7.3591273e-06 -3.6420604e-06 2.3356206e-05 4.4257857e-05
-3.4878714e-05 -2.6800239e-05 6.8484514e-06 2.525151e-05 -1.8939976e-05 -1.7664465e-06 2.4866617e-06 -4.240305e-07
3.944653e-07 6.6780785e-07 -4.8966513e-06 -1.9972897e-05 1.0734673e-05 -2.424926e-05 -1.654253e-05 -1.2079684e-06
-1.5706226e-05 1.6936902e-07 -2.9707087e-06 -2.1360129e-06 -2.1131462e-05 2.587095e-06 5.4572286e-07 6.0255115e-06
-2.9091832e-05 2.7260188e-05 9.96759e-07 -1.1296521e-05 1.7133894e-05 8.604718e-06 -1.1523445e-05 9.502037e-08
-1.1702306e-06 -5.438684e-06 -3.068516e-05 6.115156e-06 -1.7426826e-05 7.774747e-08 2.5160178e-05 1.6867436e-06
-7.780614e-06 -7.0906964e-08 2.2255344e-05 1.974671e-06 6.9518603e-07 5.4413033e-07 -1.0766732e-06 -6.090488e-07
-8.288126e-06 1.5952173e-06 -2.0134198e-06 -1.0708723e-05 6.774498e-08 4.4019553e-06 -4.433839e-05 -2.2602114e-06

exp_avg_sq f4 [128, 1]
00000000: b2e1 0a31 2d40 6b31 9d02 5530 cff6 892f
00000010: 74c5 4132 49bb 4a2e 78fc 6830 a75b 582f
00000020: 5ae8 1430 d960 c62f 9d89 992c 1a5b 402e
00000030: fdd1 7131 1ac1 3431 3c55 e230 1079 fe2e
00000040: 74f2 0a32 c3ea 892b be64 7d2d 82db a430
00000050: 7801 2531 0947 2631 c576 9231 816d 2c2f
00000060: a620 eb2f e422 3131 6902 ef30 23a3 8c30
00000070: e6ea 1f31 a4cc 6e2d a5f3 9c30 4365 2332
00000080: 29d3 2a31 4700 9831 7c8c 972f a56e 9a31
00000090: 210f 2430 fb0b 3c2c a4d1 242f 89e6 322e
000000a0: 784b d32b 4205 872f ef93 a131 4b4e 4d32
000000b0: e678 0630 10d9 0930 88aa ea30 e46e 372e
000000c0: 816c d82f 22d7 942f 3b57 122d c010 ee30
000000d0: b915 0c31 ae79 842e b145 942d 0c57 b330
000000e0: 1eea 6a31 e1f7 8f30 d4e1 2831 b6dd b130
000000f0: e536 9830 56b5 442b 34f5 ac31 0b50 6e30
00000100: 6a2c 0531 5903 7e2e e1a9 3730 0cc4 f12f
00000110: 7fdd 1631 99e9 cf2d 50b6 1a31 0080 6b31
00000120: 4db0 c431 886b 0931 1117 dc2f 8f60 7031
00000130: 68b4 9930 e9e1 c32f da88 fc2f 94eb 932d
00000140: 8139 4b2b d43a f72c 4ec4 0930 6743 8230
00000150: ddfb 4332 5445 4c31 f4f3 0931 231f 962d
00000160: 16d0 0d30 222a 902d 9bd0 782d f8c9 0231
00000170: 79a8 e531 ad83 6930 8365 4d2b 33e3 9b30
00000180: 02d4 3131 92a5 2831 6a04 602d 5eb1 0132
00000190: 2d04 fb30 24b0 a62f 41be 882f 93a6 ac2d
000001a0: dbf2 b32f 641c 7030 763c 9031 c5e4 3a31
000001b0: ef42 8b30 441c 3d2d cc1d 8331 1446 6c2e
000001c0: 36eb af30 180a 8f2c c0d8 ed30 dee6 3b31
000001d0: f17e 7f2d 123f 982e 0b51 062d 276d c62e
000001e0: b07b 282f 9f0e 3c31 c221 002f ea7c bd31
000001f0: 5a64 702b 1641 7430 f557 ab31 b736 f22d
2.0209936e-09 3.423348e-09 7.749266e-10 2.5095523e-10 1.1278974e-08 4.6095825e-11 8.475989e-10 1.9677647e-10
5.417228e-10 3.6084805e-10 4.3637997e-12 4.373666e-11 3.518948e-09 2.6303213e-09 1.6467889e-09 1.1572088e-10
8.087785e-09 9.799595e-13 1.4403754e-11 1.1994958e-09 2.4011495e-09 2.4196558e-09 4.262662e-09 1.5682212e-10
4.276945e-10 2.5776723e-09 1.7390224e-09 1.0232707e-09 2.327107e-09 1.3574173e-11 1.1419742e-09 9.510873e-09
2.4858287e-09 4.4238138e-09 2.756656e-10 4.4945687e-09 5.968435e-10 2.6723057e-12 1.4990192e-10 4.067727e-11
1.5013399e-12 2.4560093e-10 4.702535e-09 1.1950372e-08 4.8920723e-10 5.0148774e-10 1.7074209e-09 4.1707873e-11
3.9367268e-10 2.7073904e-10 8.318508e-12 1.732154e-09 2.038503e-09 6.02428e-11 1.6856601e-11 1.3048704e-09
3.4184562e-09 1.0475071e-09 2.4575586e-09 1.2941459e-09 1.1075058e-09 6.988484e-13 5.033735e-09 8.6697644e-10
1.9379294e-09 5.7755887e-11 6.6816425e-10 4.3976944e-10 2.1953779e-09 2.3636914e-11 2.2513582e-09 3.426976e-09
5.724394e-09 1.9997248e-09 4.0034157e-10 3.4979484e-09 1.118349e-09 3.5630812e-10 4.5935772e-10 1.6816583e-11
7.219989e-13 7.0266935e-12 5.0119275e-10 9.477902e-10 1.1407761e-08 2.9725316e-09 2.0074795e-09 1.7066853e-11
5.159121e-10 1.6389615e-11 1.4143488e-11 1.9032296e-09 6.6839303e-09 8.495203e-10 7.2971506e-13 1.1342308e-09
2.5877402e-09 2.4541333e-09 1.2733906e-11 7.549117e-09 1.826384e-09 3.032038e-10 2.487344e-10 1.962811e-11
3.273247e-10 8.7351837e-10 4.197825e-09 2.7196603e-09 1.0132605e-09 1.0749682e-11 3.8159893e-09 5.372243e-11
1.2799777e-09 4.065425e-12 1.7305624e-09 2.7343314e-09 1.45232585e-11 6.923363e-11 7.635013e-12 9.023387e-11
1.5323454e-10 2.7365912e-09 1.1653525e-10 5.514825e-09 8.5404394e-13 8.8859176e-10 4.9867546e-09 2.7536513e-11

exp_avg f4 [128]
00000000: 15e7 8cb7 ae73 b236 90ab 88b6 d802 ceb6
00000010: 929a c8b7 a638 2236 eaa4 27b6 06ee f0b6
00000020: ba4d 5bb7 b07a 49b6 be8b 9635 5098 3436
00000030: 0a79 e8b7 c3b5 cd37 430a ca37 397c 0cb6
00000040: 9339 fcb7 b8aa fcb4 c483 5535 82e1 a637
00000050: d7d2 d2b7 b837 d3b7 ba52 ea37 da73 6b36
00000060: 9474 1fb7 b0ec a9b7 3193 75b7 0e50 1db7
00000070: 8635 b437 a357 a8b5 ad7c a336 5ec1 64b7
00000080: 3232 adb7 0faa 1d38 0c80 93b4 e085 3c38
00000090: 9a3d a736 3ace 4935 89a5 ad36 d62e 28b6
000000a0: 44a6 bf34 80b5 81b2 8d5c 9e37 deca 61b8
000000b0: ac45 a8b5 8640 71b7 9278 eb37 8236 7e36
000000c0: 94d6 08b7 f27c d836 71f5 8934 501a 9437
000000d0: f65a 8a37 5320 ccb5 7b68 0bb6 12f8 c6b7
000000e0: 4430 e2b6 d782 67b7 ed5c 98b7 a4da cd35
000000f0: 3277 b1b6 2db1 acb4 98e7 b6b6 e698 3337
00000100: da71 05b7 a427 8736 747c b135 44da 16b6
00000110: de75 deb6 7331 5cb6 8282 b037 2c3c 2738
00000120: 5ecb 03b8 9a89 cab7 ef05 cf36 4ad5 be37
00000130: 9222 8fb7 0898 d5b5 f856 1636 f016 cdb4
00000140: 46ca be34 907f 2135 a805 94b6 f6f0 96b7
00000150: 0840 2237 4c42 b7b7 a208 7ab7 5410 92b5
00000160: ae64 6db7 fed5 2334 b19a 33b6 ac23 01b6
00000170: 5db2 9fb7 9069 1c36 61f9 0335 7f25 b636
00000180: 0fdb dbb7 6c03 ce37 b70c 7135 21be 2ab7
00000190: 6c7c 8137 8f0e 0237 182c 2eb7 f0d4 b733
000001a0: 1480 8db5 2b68 a4b6 91e5 e7b7 5cdb b836
000001b0: 26b3 83b7 606a 9633 9024 be37 86f4 cb35
000001c0: b033 ebb6 402e 89b3 b730 a837 14c5 ee35
000001d0: 8d1e 2835 b896 0335 1730 82b5 004a 13b5
000001e0: 208b fab6 58e3 c035 c774 f3b5 97db 21b7
000001f0: 8410 8333 5c11 8536 098a 27b8 10a6 08b6
-1.6796906e-05 5.3182803e-06 -4.0730883e-06 -6.1396095e-06 -2.3913835e-05 2.4172855e-06 -2.4980932e-06 -7.180267e-06
-1.3071514e-05 -3.0022748e-06 1.1216541e-06 2.6910748e-06 -2.7712918e-05 2.4522544e-05 2.4085055e-05 -2.0933933e-06
-3.0067551e-05 -4.7062872e-07 7.954043e-07 1.9893752e-05 -2.513213e-05 -2.5179106e-05 2.7933496e-05 3.5085163e-06
-9.5042815e-06 -2.0256586e-05 -1.4637409e-05 -9.376568e-06 2.1482596e-05 -1.2542481e-06 4.8722927e-06 -1.3634881e-05
-2.0646581e-05 3.7590096e-05 -2.747405e-07 4.4947374e-05 4.984159e-06 7.5178434e-07 5.1750726e-06 -2.5061213e-06
3.5697497e-07 -1.5100113e-08 1.8878165e-05 -5.3833115e-05 -1.2537253e-06 -1.4379742e-05 2.8070328e-05 3.7880677e-06
-8.156192e-06 6.451847e-06 2.569682e-07 1.7655228e-05 1.6493239e-05 -1.5208592e-06 -2.077343e-06 -2.3718956e-05
-6.7409437e-06 -1.37991365e-05 -1.8163084e-05 1.5337323e-06 -5.288887e-06 -3.216641e-07 -5.4509837e-06 1.0704831e-05
-7.953926e-06 4.0279283e-06 1.3223748e-06 -2.247879e-06 -6.629837e-06 -3.2811338e-06 2.1041607e-05 3.9871942e-05
-3.1422234e-05 -2.4144352e-05 6.1697715e-06 2.2749085e-05 -1.7063026e-05 -1.5913984e-06 2.2402364e-06 -3.8200915e-07
3.553743e-07 6.01628e-07 -4.411402e-06 -1.79936e-05 9.670861e-06 -2.1846172e-05 -1.4903171e-05 -1.08826e-06
-1.4149742e-05 1.5258408e-07 -2.676312e-06 -1.9243262e-06 -1.9037334e-05 2.3307257e-06 4.9164197e-07 5.428388e-06
-2.6208842e-05 2.4558707e-05 8.9798e-07 -1.0177057e-05 1.5435937e-05 7.7519935e-06 -1.0381475e-05 8.560335e-08
-1.0542594e-06 -4.8997076e-06 -2.7644246e-05 5.509164e-06 -1.569984e-05 7.004269e-08 2.266679e-05 1.5195844e-06
-7.009563e-06 -6.3879725e-08 2.0049845e-05 1.7789739e-06 6.2629334e-07 4.902063e-07 -9.699751e-07 -5.486945e-07
-7.466777e-06 1.437128e-06 -1.8138898e-06 -9.647475e-06 6.103167e-08 3.96573e-06 -3.9944458e-05 -2.036224e-06

exp_avg_sq f4 [128]
00000000: 5270 e130 3cef 3e31 39e2 2c30 07f3 5f2f
00000010: d944 1d32 938a 242e c118 3d30 c499 2f2f
00000020: 9db6 f12f 1a02 a12f 983a 792c c41e 1c2e
00000030: 3a44 4431 3ab4 1231 5eb2 b730 2189 ce2e
00000040: 7d8b e131 76df 5f2b e0a8 4d2d 43cd 8530
00000050: 15ec 0531 51f4 0631 29bf 6d31 2ff2 0b2f
00000060: 9dd5 be2f 81c4 0f31 34fc c130 d249 6430
00000070: e6ca 0131 9ed0 412d 55c5 7e30 879d 0432
00000080: 24a5 0a31 12bc 7631 1c00 762f 58ae 7a31
00000090: 6727 0530 6d9f 182c 42c5 052f 1533 112e
000000a0: cf7d ab2b d62b 5b2f dc23 8331 73a1 2632
000000b0: f747 da2f c1c2 df2f cc75 be30 d9e0 142e
000000c0: 82a7 af2f b19a 712f f78b ed2c 1538 c130
000000d0: 4b64 e330 2a0a 572e 93ae 702d 608e 9130
000000e0: 67a9 3e31 0fb2 6930 7d11 0931 215c 9030
000000f0: c214 7730 15a7 1f2b 5960 8c31 706b 4130
00000100: 472c d830 9e29 4e2e bf10 1530 e938 c42f
00000110: 0ee4 f430 0cbf a82d a522 fb30 0623 3f31
00000120: 0da3 9f31 ed10 df30 3ea1 b22f 6518 4331
00000130: 0480 7930 80fb 9e2f 6cf6 cc2f 4c1c 702d
00000140: 04f1 242b 32a8 c82c 08a1 df2f ea72 5330
00000150: 9010 1f32 67ca 2531 64ee df30 12af 732d
00000160: 5f32 e62f a103 6a2d 8bf1 492d 644d d430
00000170: 3c65 ba31 7c86 3d30 52b4 262b 180b 7d30
00000180: 3b54 1031 99e0 0831 2dd1 352d ed85 d231
00000190: edba cb30 9d49 872f a0f7 5d2f 8520 8c2d
000001a0: db0c 922f 11e1 4230 6621 6a31 d3af 1731
000001b0: 250e 6230 717c 192d 7ad5 5431 c4c3 3f2e
000001c0: 8ac7 8e30 1730 682c 9f0a c130 4b81 1831
000001d0: b05d 4f2d 0922 772e 4e07 da2c 160c a12e
000001e0: 99be 082f 9fa1 1831 38fd cf2e e5ca 9931
000001f0: 7f1b 432b f23d 4630 ec10 8b31 0196 c42d
1.6402828e-09 2.7784628e-09 6.2894717e-10 2.0368073e-10 9.154257e-09 3.741236e-11 6.8792977e-10 1.5970786e-10
4.39674e-10 2.9287223e-10 3.5417554e-12 3.549762e-11 2.8560536e-09 2.1348243e-09 1.3365697e-09 9.3921544e-11
6.56422e-09 7.953563e-13 1.1690399e-11 9.735363e-10 1.9488244e-09 1.9638444e-09 3.45967e-09 1.2728017e-10
3.471258e-10 2.0920938e-09 1.4114279e-09 8.305082e-10 1.8887305e-09 1.1017102e-11 9.268509e-10 7.719229e-09
2.0175515e-09 3.5904617e-09 2.2373609e-10 3.647889e-09 4.844111e-10 2.1688998e-12 1.216636e-10 3.3014553e-11
1.21852e-12 1.9933508e-10 3.8166785e-09 9.699181e-09 3.9705103e-10 4.0701845e-10 1.3857799e-09 3.385101e-11
3.1951336e-10 2.197378e-10 6.7514844e-12 1.4058538e-09 1.6544929e-09 4.8894368e-11 1.3681184e-11 1.0590604e-09
2.7744933e-09 8.501794e-10 1.9946065e-09 1.0503564e-09 8.9887575e-10 5.672002e-13 4.0854897e-09 7.036567e-10
1.5728653e-09 4.687594e-11 5.422968e-10 3.569263e-10 1.7818154e-09 1.918423e-11 1.82725e-09 2.7814067e-09
4.6460458e-09 1.6230196e-09 3.249258e-10 2.8390101e-09 9.0767593e-10 2.8918734e-10 3.7282477e-10 1.3648704e-11
5.859898e-13 5.7030153e-12 4.0677883e-10 7.6924656e-10 9.258784e-09 2.4125713e-09 1.629314e-09 1.3851824e-11
4.1872547e-10 1.3302166e-11 1.14791605e-11 1.5447026e-09 5.4248215e-09 6.8948913e-10 5.922529e-13 9.205663e-10
2.1002637e-09 1.9918274e-09 1.0335105e-11 6.12703e-09 1.4823321e-09 2.4608662e-10 2.0187807e-10 1.5930599e-11
2.656638e-10 7.089663e-10 3.4070466e-09 2.2073336e-09 8.223842e-10 8.724675e-12 3.0971408e-09 4.3602247e-11
1.0388572e-09 3.2995878e-12 1.4045617e-09 2.2192406e-09 1.17873905e-11 5.6191527e-11 6.1967436e-12 7.323579e-11
1.2436842e-10 2.2210782e-09 9.458251e-11 4.4759525e-09 6.9316075e-13 7.212001e-10 4.0473562e-09 2.2349235e-11

exp_avg f4 [128, 128]
00000000: fd4f 4a35 667f 4637 79e3 a736 3522 e5b5
00000010: 989c 0437 7821 09b6 f034 4e36 6e83 12b6
00000020: b9d2 d735 9bc3 d036 f656 3fb6 3201 32b6
00000030: 1201 a137 2a0d 3d37 d96c 8c36 1bc7 11b6
00000040: a27f 2b37 9418 3eb6 7e85 36b6 687c 6e37
00000050: 5149 1336 2096 9d36 9f0e 0336 e458 02b6
00000060: 3ea4 49b5 821c dc36 b683 9636 3e32 3934
00000070: 573b 4436 54c9 2db6 9683 8535 63b9 6937
00000080: 9ab1 0b37 aed4 8937 a4d4 93b5 cfd8 c637
00000090: 8ac8 48b5 8619 3fb6 0c33 4db5 eee5 30b6
000000a0: da43 41b6 2848 80b4 d263 fe37 397b 4a37
000000b0: 5fa2 c5b5 70ab edb5 cc2c c436 5a19 31b6
000000c0: 4a05 05b6 9a6d e3b5 2e8d 3eb6 60d4 6b36
000000d0: 4a4b d736 d43a 31b6 5dfe 33b6 6417 1cb5
000000e0: 2dde 8837 e3c4 ac35 ec5c 2837 c2ed 2237
000000f0: ac5f 2a37 8668 40b6 7771 da35 6296 5e37
00000100: b947 cf35 b964 e2b5 ccfa 52b5 56fc b136
00000110: 703a 4736 9848 35b6 d807 1037 4784 0537
00000120: f3d0 7637 2e03 0236 1c63 c336 880d 0837
00000130: 33b5 2335 3291 95b5 dc38 b835 fd5d 21b6
00000140: d2d4 41b6 f6b9 40b6 42d6 b435 1230 4ab5
00000150: 46b1 b937 6c67 7c37 e6e4 1d35 d63c 22b6
00000160: b983 4cb5 ed89 2fb6 0cce 3eb6 8cba f435
00000170: ee30 b136 f837 9735 6c80 3fb6 6b64 6e35
00000180: 24c2 bb35 d089 3f37 522f 3cb6 5752 e537
00000190: fc61 3436 8e02 dbb5 c5ee 03b6 5e94 36b6
000001a0: 5a41 f1b5 d789 83b4 a6bb 8f37 3ec5 c636
000001b0: 48e5 7736 8b74 3cb6 dc9a 1437 4998 3ab6
000001c0: 12c4 2537 2443 40b6 04e5 ba37 08d7 4337
000001d0: 06cf 09b6 06ad 23b6 986c 3bb6 9a41 33b6
000001e0: d85f 1db6 7de3 1737 941e 11b6 de9c 8b37
000001f0: 40ef 41b6 a4d4 ae35 b81b 3137 7b05 38b6
00000200: e7e8 c8b5 a0e6 c1b7 2f74 24b7 7278 5f36
00000210: 86c8 81b7 2019 8636 bc1a cab6 1c11 8f36
00000220: 9d6a 53b6 8cd8 4bb7 622a bb36 9d41 ae36
00000230: d2ad 1db8 8e8f b8b7 e4c4 08b7 24b0 8e36
00000240: d007 a8b7 de08 ba36 3380 b236 68e7 e8b7
00000250: 6691 90b6 7e20 1ab7 bd30 7fb6 077a 7f36
00000260: 9a8f c335 62c8 57b7 7cd5 13b7 629a b6b4
00000270: 2a9e bfb6 ea11 aa36 6401 02b6 9caf e4b7
00000280: d4d5 88b7 43a7 06b8 8450 1136 9b59 42b8
00000290: 2b84 c635 8ef4 ba36 c47c ca35 ac0d ad36
000002a0: 7715 bd36 f834 fa34 34dd 78b8 9276 c6b7
000002b0: a07c 4136 b414 6836 b096 3fb7 1634 ad36
000002c0: 27bc 8136 5bc3 5e36 b061 ba36 2401 e6b6
000002d0: 867c 52b7 e451 ad36 a829 b036 4b68 9635
000002e0: e3e6 05b8 d4d3 28b6 ec17 a5b7 9659 9fb7
000002f0: 5ecf a6b7 7347 bc36 1ae9 55b6 9070 d9b7
00000300: c84e 4ab6 4941 5d36 d613 ce35 3648 2eb7
00000310: 81a9 c3b6 e06f b136 be9f 8cb7 fe5e 82b7
00000320: 33b0 f1b7 9808 80b6 28c2 3eb7 ca1f 85b7
00000330: fb0a a0b5 f84d 1236 808b 33b6 ece0 9d36
00000340: fda5 bd36 4a88 bc36 0a65 31b6 4e14 c535
00000350: 26bf 35b8 4438 f7b7 6c25 9bb5 8cc2 9e36
00000360: 1e07 c735 8cca ab36 e2b3 ba36 77fa 70b6
00000370: 0885 2db7 ac63 13b6 0053 bb36 9288 eab5
00000380: ced1 38b6 8026 bbb7 f507 b836 8c82 60b8
00000390: e25e b0b6 7d71 5636 7ac1 8036 5ca2 b236
000003a0: ce48 6c36 4cca 0235 75b2 0cb8 c0df 42b7
000003b0: dbb6 f2b6 1867 b836 786e 91b7 bc7f b636
000003c0: a17f a2b7 5a15 bc36 6fc9 36b8 6987 bfb7
000003d0: acda 8636 1513 a036 6868 b736 f237 af36
000003e0: 1414 9a36 149c 94b7 ced2 8d36 5291 08b8
000003f0: 38b9 bd36 ba8c 29b6 f272 adb7 f5e4 b336
7.536726e-07 1.1831382e-05 5.003469e-06 -1.7071785e-06 7.904273e-06 -2.0434072e-06 3.0727206e-06 -2.1832197e-06
1.6080077e-06 6.2216545e-06 -2.8511836e-06 -2.6524763e-06 1.9193194e-05 1.1268343e-05 4.1849967e-06 -2.1722578e-06
1.0222111e-05 -2.8326513e-06 -2.7197816e-06 1.4214871e-05 2.1947383e-06 4.6964415e-06 1.9529032e-06 -1.942325e-06
-7.511734e-07 6.5598297e-06 4.4856815e-06 1.7247746e-07 2.9240816e-06 -2.5896197e-06 9.947569e-07 1.3931046e-05
8.326397e-06 1.643071e-05 -1.101424e-06 2.3704399e-05 -7.479763e-07 -2.8476074e-06 -7.6442734e-07 -2.635988e-06
-2.8798736e-06 -2.3894358e-07 3.0325642e-05 1.2068828e-05 -1.47249e-06 -1.7707771e-06 5.8464702e-06 -2.6389812e-06
-1.9821623e-06 -1.6944716e-06 -2.8394384e-06 3.5141347e-06 6.416264e-06 -2.6409298e-06 -2.6821137e-06 -5.8148566e-07
1.6315922e-05 1.28723e-06 1.0035215e-05 9.71131e-06 1.0155065e-05 -2.867107e-06 1.6275288e-06 1.3267245e-05
1.5443576e-06 -1.6867626e-06 -7.8596054e-07 5.304387e-06 2.9687326e-06 -2.7013357e-06 8.584895e-06 7.958216e-06
1.4711392e-05 1.937336e-06 5.8229907e-06 8.109382e-06 6.098591e-07 -1.1143622e-06 1.3725617e-06 -2.4045578e-06
-2.8883119e-06 -2.8718473e-06 1.3473402e-06 -7.5320816e-07 2.2136268e-05 1.504445e-05 5.882015e-07 -2.4175292e-06
-7.6187604e-07 -2.6157315e-06 -2.8432141e-06 1.8233709e-06 5.2807072e-06 1.1266666e-06 -2.853597e-06 8.8808036e-07
1.3989088e-06 1.1416574e-05 -2.8041727e-06 2.733727e-05 2.6879125e-06 -1.6317515e-06 -1.9659503e-06 -2.7206474e-06
-1.7974919e-06 -2.4500943e-07 1.7134309e-05 5.923822e-06 3.6939327e-06 -2.808202e-06 8.857543e-06 -2.7804801e-06
9.880418e-06 -2.864931e-06 2.2279572e-05 1.1672972e-05 -2.0535094e-06 -2.4389606e-06 -2.7928381e-06 -2.6711264e-06
-2.3450611e-06 9.053268e-06 -2.1624483e-06 1.6643138e-05 -2.8898503e-06 1.3025897e-06 1.0556476e-05 -2.7421327e-06
-1.4968945e-06 -2.3114786e-05 -9.802213e-06 3.3299698e-06 -1.5471374e-05 3.996436e-06 -6.0231814e-06 4.263724e-06
-3.1503507e-06 -1.2150162e-05 5.5779683e-06 5.1932425e-06 -3.75936e-05 -2.2001357e-05 -8.152074e-06 4.2524352e-06
-2.0030799e-05 5.5442642e-06 5.3197377e-06 -2.7764312e-05 -4.308461e-06 -9.1866805e-06 -3.802633e-06 3.806899e-06
1.4570426e-06 -1.2861654e-05 -8.8115885e-06 -3.401247e-07 -5.7106563e-06 5.0684803e-06 -1.937232e-06 -2.7261493e-05
-1.6312035e-05 -3.2103864e-05 2.165355e-06 -4.6336656e-05 1.4790616e-06 5.571702e-06 1.5086484e-06 5.1573934e-06
5.6351378e-06 4.6604669e-07 -5.933382e-05 -2.3658653e-05 2.8831782e-06 3.4582745e-06 -1.1419572e-05 5.1618654e-06
3.8664034e-06 3.319429e-06 5.5546043e-06 -6.854667e-06 -1.2545968e-05 5.165335e-06 5.250058e-06 1.1206224e-06
-3.19247e-05 -2.515725e-06 -1.9680672e-05 -1.8995994e-05 -1.9885305e-05 5.6111544e-06 -3.1875156e-06 -2.5920832e-05
-3.0146202e-06 3.2969567e-06 1.5353969e-06 -1.0388021e-05 -5.8311857e-06 5.288035e-06 -1.6763686e-05 -1.5541442e-05
-2.8811488e-05 -3.8156977e-06 -1.1370088e-05 -1.5869638e-05 -1.1924125e-06 2.180108e-06 -2.6754278e-06 4.705149e-06
5.6519625e-06 5.6187027e-06 -2.6433868e-06 1.4683553e-06 -4.3331784e-05 -2.9470895e-05 -1.1559291e-06 4.731415e-06
1.4828727e-06 5.1197767e-06 5.564173e-06 -3.5908577e-06 -1.0342577e-05 -2.1962724e-06 5.5826968e-06 -1.7474106e-06
-2.754026e-06 -2.2310065e-05 5.4845536e-06 -5.3527343e-05 -5.2562546e-06 3.1954544e-06 3.837221e-06 5.3237145e-06
3.5209118e-06 4.8723155e-07 -3.3544802e-05 -1.1615397e-05 -7.233449e-06 5.495629e-06 -1.7336788e-05 5.438893e-06
-1.9371337e-05 5.6053223e-06 -4.357978e-05 -2.283203e-05 4.018968e-06 4.770593e-06 5.4659795e-06 5.2219193e-06
4.591895e-06 -1.7715654e-05 4.2266684e-06 -3.2560267e-05 5.6542012e-06 -2.5264876e-06 -2.0676733e-05 5.36127e-06

exp_avg_sq f4 [128, 128]
00000000: 68e0 082d 3df7 0c31 6d2a c92f f4c7 392e
00000010: bb79 7c30 0e53 852e deda 182f 5e7b 982e
00000020: 2ff0 242e 8997 1c30 5710 022f d0a0 e12e
00000030: 88e3 b731 8e64 ff30 94fa 8c2f 4805 972e
00000040: bdea d030 c75d 002f 0578 ed2e 5182 4b31
00000050: 9331 9d2e 0801 b22f dcc8 782e 28e7 712e
00000060: 0424 122d faf2 2c30 a05c 9e2f 1039 252b
00000070: eb7e 082f 098b d62e 9663 7a2d ab0b 4331
00000080: a329 8930 2ca9 8731 610d 962d 05f5 0c32
00000090: d4f2 0b2d 76f3 012f 43b7 0e2d cd03 de2e
000000a0: 0aba 042f f11b 8e2b 98bb 6532 ffde 1031
000000b0: 4548 092e f37c 492e 375e 0930 c4f3 de2e
000000c0: 1227 7c2e ed8f 342e 4016 012f aea4 432f
000000d0: ad51 2530 7802 df2e 5e38 e62e 19c3 b12c
000000e0: 6166 8631 e031 de2d 394e c830 1e52 bf30
000000f0: e402 d030 b376 032f 59c3 292e 27fc 3031
00000100: c589 1d2e eb66 362e 24bd 222d 11af e22f
00000110: f7bf 0d2f d64d e92e 9a7a 9330 998d 7f30
00000120: 28a6 5931 ba4f 722e 61c1 0730 25e2 8330
00000130: 3638 bf2c d693 9a2d 165c ed2d 89c0 b92e
00000140: 656f 052f 1fed 032f 9fb9 e82d b2e6 0e2d
00000150: d010 f531 78ca 6131 b295 ba2c 9fb7 bb2e
00000160: beac 152d d33e da2e 1e41 012f 1537 522e
00000170: a752 e02f c2ff ab2d 0c59 022f 2ea2 4e2d
00000180: f8d0 fc2d a0d0 0331 0ed3 fb2e 3685 3a32
00000190: 7785 eb2e 41b6 2a2e 9f5e 782e d2d1 ec2e
000001a0: e2e5 4b2e c54f 852b ff1a 9331 5e7d 0c30
000001b0: d5a4 5c2f 285a fc2e 5094 9c30 19d7 f72e
000001c0: 0fe3 c330 8351 032f 12c0 f831 af83 0931
000001d0: 5845 862e 6b4b bf2e 7372 f92e eebb e42e
000001e0: 1401 b02e c96f a430 f112 972e 6c27 8b31
000001f0: 2497 052f 9cc6 de2d 4b2c de30 024f f12e
00000200: 2d03 da2d ee60 e131 3e24 a130 7928 142f
00000210: f8eb 4931 26fe 542f b420 f52f 6a9e 732f
00000220: 7dec 032f b0f1 fa30 3aca cf2f 7c51 b42f
00000230: c9f7 9232 342d cc31 8931 6130 eb06 712f
00000240: 6dcb a631 a91c cd2f 71c8 bd2f b3ab 2232
00000250: 7998 7c2f a56f 8e30 e3af 462f 3187 412f
00000260: 076c ea2d b743 0a31 4083 7c30 6e57 0c2c
00000270: 3058 da2f f456 ab2f f622 482e 10df 1b32
00000280: 48de 5a31 3ae0 5832 d7a6 6e2e 3e51 e132
00000290: 2e01 e02d e2ae cf2f 0a68 e32d be52 b12f
000002a0: 230d d42f 20ae 672c a17a 3733 c35c e731
000002b0: a85a db2e e9cc 202f 55b6 db30 2f13 b22f
000002c0: 3e73 492f 3fd2 0f2f 793b ce2f 7016 1c30
000002d0: 6ef4 0331 4531 b22f 0cfb b72f 964c 8e2d
000002e0: 5724 5732 4e0f b32e beeb 9f31 4c2b 9931
000002f0: 735d a631 a508 d22f 5d43 072f fa7a 0d32
00000300: 310e fd2e 19c5 112f 8912 022e 619c b530
00000310: 678c e22f 6057 ba2f 42b0 6b31 0987 4c31
00000320: 1225 2e32 d10c 422f b325 d930 85a8 5231
00000330: f404 992d 56f5 752e 3c70 bd2e f881 942f
00000340: 892e d52f dec5 d22f 9505 bb2e 5a02 e32d
00000350: d6cd c332 6371 3432 bf96 952d 190c 962f
00000360: 9757 ee2d e844 ae2f 757c ce2f 167c 272f
00000370: 8627 b330 5362 8a2e c43f d02f 9065 262e
00000380: a0eb c92e defc d231 5228 c92f 71fd 1433
00000390: ff9c bc2f 7fa2 082f e641 462f f620 bd2f
000003a0: fc7b 222f fb3b 592c 8c06 6b32 cd93 e030
000003b0: cae8 3030 4390 c92f e004 7a31 c106 c62f
000003c0: 81c6 9c31 b2c5 d12f 71c1 c632 8815 dc31
000003d0: df51 562f d1dd 982f 503e c72f cac0 b62f
000003e0: 969d 8c2f ab5d 8331 4087 712f ef68 5e32
000003f0: 4b6a d52f e135 b32e 447a b131 41cf c02f
7.780533e-12 2.051322e-09 3.6591832e-10 4.2241724e-11 9.1850055e-10 6.062893e-11 1.3902077e-10 6.934074e-11
3.750261e-11 5.6967814e-10 1.1829236e-10 1.02603814e-10 5.3518683e-09 1.8582271e-09 2.5643898e-10 6.867623e-11
1.5200708e-09 1.1674849e-10 1.0798832e-10 2.9614464e-09 7.1483396e-11 3.2378744e-10 5.656707e-11 5.5002364e-11
8.307136e-12 6.2918526e-10 2.8805847e-10 5.8698966e-13 1.2414218e-10 9.756291e-11 1.4232967e-11 2.8382867e-09
9.979896e-10 3.9482497e-09 1.7058967e-11 8.2047835e-09 7.955154e-12 1.1818976e-10 8.112458e-12 1.0096066e-10
1.2071424e-10 1.0097462e-12 1.3372208e-08 2.1081517e-09 3.1214382e-11 4.5813086e-11 4.9974197e-10 1.0138693e-10
5.7332868e-11 4.1055093e-11 1.1740386e-10 1.7793653e-10 6.014272e-10 1.01413045e-10 1.0469202e-10 5.0523028e-12
3.9115524e-09 2.5260627e-11 1.4574147e-09 1.3920418e-09 1.5134813e-09 1.1956551e-10 3.8599655e-11 2.5754703e-09
3.582003e-11 4.147342e-11 9.2506315e-12 4.1233553e-10 1.2892075e-10 1.060944e-10 1.0730503e-09 9.296968e-10
3.1672105e-09 5.509524e-11 4.938752e-10 9.595779e-10 5.434787e-12 1.7573425e-11 2.6984675e-11 8.447027e-11
1.2135855e-10 1.1998623e-10 2.6457779e-11 8.12299e-12 7.13235e-09 3.28569e-09 5.3030575e-12 8.536393e-11
8.508026e-12 9.924652e-11 1.1755616e-10 4.7797395e-11 4.080409e-10 1.9554029e-11 1.1855067e-10 1.1745755e-11
2.8741884e-11 1.9181599e-09 1.14516494e-10 1.0856914e-08 1.0710271e-10 3.88154e-11 5.6472712e-11 1.0769309e-10
4.6361033e-11 9.472359e-13 4.281332e-09 5.110986e-10 2.0067444e-10 1.1475648e-10 1.1392647e-09 1.12704686e-10
1.4252651e-09 1.194334e-10 7.239586e-09 2.0010977e-09 6.1059324e-11 8.699071e-11 1.1343539e-10 1.04016226e-10
8.003745e-11 1.1964342e-09 6.87005e-11 4.049914e-09 1.2149975e-10 2.5326678e-11 1.6165215e-09 1.0973446e-10
2.4785141e-11 6.5593815e-09 1.1724592e-09 1.34749e-10 2.9383482e-09 1.937158e-10 4.4588477e-10 2.2157001e-10
1.1998398e-10 1.8258586e-09 3.779677e-10 3.2799707e-10 1.7109317e-08 5.9423204e-09 8.1924917e-10 2.192128e-10
4.8543627e-09 3.7309647e-10 3.4521322e-10 9.468681e-09 2.2973436e-10 1.0363591e-09 1.8070483e-10 1.7601277e-10
2.6650694e-11 2.0120134e-09 9.1863583e-10 1.994373e-12 3.971663e-10 3.1166503e-10 4.5505787e-11 9.072906e-09
3.1849527e-09 1.2623838e-08 5.426312e-11 2.6230392e-08 2.5466376e-11 3.7777342e-10 2.5853115e-11 3.2254904e-10
3.857191e-10 3.2923733e-12 4.2719538e-08 6.7335306e-09 9.975071e-11 1.4624714e-10 1.5986169e-09 3.2391642e-10
1.8321786e-10 1.3080469e-10 3.751344e-10 5.6784355e-10 1.9201951e-09 3.241302e-10 3.3465886e-10 1.6177542e-11
1.252291e-08 8.142696e-11 4.65431e-09 4.4578083e-09 4.84186e-09 3.820492e-10 1.2302111e-10 8.235242e-09
1.1507629e-10 1.3257696e-10 2.957504e-11 1.3213929e-09 4.1208922e-10 3.3895287e-10 3.4297192e-09 2.9762666e-09
1.0136562e-08 1.764875e-10 1.5799543e-09 3.0654814e-09 1.7396286e-11 5.5924453e-11 8.614662e-11 2.7013392e-10
3.877754e-10 3.833937e-10 8.504767e-11 2.5807956e-11 2.2794591e-08 1.050316e-08 1.7006284e-11 2.7293437e-10
2.7096365e-11 3.1699376e-10 3.7559614e-10 1.5232646e-10 1.3035197e-09 6.292979e-11 3.7880288e-10 3.7834236e-11
9.182277e-11 6.140552e-09 3.6590336e-10 3.468944e-08 3.4308553e-10 1.2426858e-10 1.8031407e-10 3.440232e-10
1.4777862e-10 3.087085e-12 1.3680289e-08 1.6340153e-09 6.435924e-10 3.666419e-10 3.638256e-09 3.602079e-10
4.562765e-09 3.815735e-10 2.31382e-08 6.4052905e-09 1.9492273e-10 2.780625e-10 3.6242165e-10 3.3242592e-10
2.5577823e-10 3.8232506e-09 2.1966873e-10 1.294596e-08 3.882e-10 8.1495484e-11 5.165278e-09 3.507186e-10
